Assets/Agent Models/CubeAgent 1.onnx (onnx, 80046 bytes, 8 tensors)

action_model._continuous_distribution.log_sigma f4 [1, 2]
00000000: c361 90bd 5b66 4bbd
-0.070498966 -0.04965816

action_model._continuous_distribution.mu.bias f4 [2]
00000000: dca1 443d a5a0 db3c
0.048005924 0.02681

action_model._continuous_distribution.mu.weight f4 [2, 128]
00000000: 1bab 763d 9b64 923b fb46 e5bc b41e 883a
00000010: d59b 9cbc eef9 a3bc 7816 293d cdcb 02bd
00000020: b682 b4bd 0ba0 42bd 33ca 25bd 7d7a 85bc
00000030: c13e 353d 5d36 433d a678 52bc fc35 d03c
00000040: e71e c0bd d816 aabc e129 e73d 0a42 9a3d
00000050: 37b4 a1bd e4f2 303c 2cca 15bd 9bd7 5e3c
00000060: 8223 8d3d 69e1 5bbd 4fe2 92bd 3af7 403c
00000070: 019d 1b3d 3f00 1a3d eb76 ec3d 062b ec39
00000080: 14a7 f13d 8dfb 853d 0e99 bbbc 9e84 f4bc
00000090: f923 ec3c e6ba b03c 9019 3d3d 967d 1bbd
000000a0: 7784 3b3d 5822 993d 557d e23c 94a3 043e
000000b0: 41d4 293d f544 1b3d e36d c13d f4e4 40bd
000000c0: 7d12 cbbd 567d f8bb 72d1 82bc eb0e e53d
000000d0: a8a6 843d 21b5 bd3c da99 05bd 3c4d b83d
000000e0: 59b7 b8bb 22ba 94bd f570 8e3d 5d47 0ebd
000000f0: 7e92 c63d 6b42 a9bc 6921 f6bc b7a3 debc
00000100: d316 99bc 8b8c 413d c868 85bc 85bd 3abd
00000110: 2fd2 c8bd 62e7 653c e1c1 533d ef8f 8b3a
00000120: c23a 18bc 509c 8b3b 6c26 b43d 9606 a1bc
00000130: cb4f c2bc 7d95 8f3d 0cce 043e 462d 3d3d
00000140: 7f4f 1c3d 5d42 1ebd 4c3d 72bc e708 3e3b
00000150: 5d24 b7bb ee49 743c e59c 89bd e5f7 903d
00000160: 676d 2fbd fa24 f83d 65cb 4fbd 81b3 fb3a
00000170: ba13 7e3b 2e04 30bd 6a59 ccbb bfda 11bd
00000180: 411b 853d 7c75 603d 771e 2a3b eb73 d5bd
00000190: 57ac 8abc 081f bf3d 0964 32bd d950 e6bc
000001a0: 66c7 073e 394e 03bd b3f8 dc3d 6991 4dbd
000001b0: e2fd 0e3d ea87 803d aa5b be3d f4e7 26bd
000001c0: 4448 dabd 7cc3 85bd 7667 f13c 7b82 31bd
000001d0: d63b 04bd e8ed 303d 450b 94bc d556 183d
000001e0: c397 d6bb b33b 93bc c432 1ebd b584 5abd
000001f0: 68a4 31bd 8ea1 3cbb 27be 3abc 5b7c d13d
00000200: 3fe1 5d3b 105c 653d 00df 0d3d 065b b33c
00000210: 3d80 00bc 579e 3e3d f4e0 bbbd a5fa fabb
00000220: d71f 12bd b5f7 363d e9e4 5dbd a49b 4abc
00000230: f034 51bd 6008 d7bc de7c 8f3d 2bfb 0cbe
00000240: e334 283d ec4c 623d 1338 863b 7dc4 f8bd
00000250: b5b4 52bd cebd c73b 9a8f a33d b993 5cbd
00000260: 257b 3c3c 56f9 46bd bfb1 163d 8139 c0bd
00000270: ca44 f7bd 911b 393d 5517 333c e921 3ebd
00000280: b3cf 273d 7010 5c3d 7b2c 183d 77b8 e3bc
00000290: 7c9c 143d 0947 083d 6fa9 f33c ae39 083d
000002a0: 9b72 5e3d 129a 50bd a5b1 183c 4d3d 81bd
000002b0: 03a0 9cbd c80c 353d 082b ecbd fffd 1a3d
000002c0: d72b e4bc ec4a 213d 0b67 d4bd 700a 0d3d
000002d0: ba52 fe3c c3c0 293d 6333 1dbc f564 ecbd
000002e0: 1853 a2bd 8d2a 943c 3bf5 083d 0a2c 25bd
000002f0: e441 93bd 76a6 a03d c744 abbc ac00 9ebc
00000300: 2afe 863d 1429 8bbd 5821 4fbd 6062 23bd
00000310: aa56 833d e1b5 bfbd d949 9bbd e6d4 723d
00000320: 76d5 4e3d dcb5 0cbe 8e9b 80bd 221e 9f3d
00000330: b0a1 333d 1bb3 b2bd 4a6c a7bd cc60 f6bd
00000340: ed36 613d d46d d2bd fdca 1d3d 0c9e a23d
00000350: ce28 16bd f1b0 0fbe 1fee 1abd 281e f93c
00000360: 3788 80bc f91c 2d3d f029 f0bc 86f6 283d
00000370: bec5 b03c 2d58 9f3c 9e48 8dbd c26e ed3c
00000380: 3718 de3c eab0 4e3d 6ae5 c7bd 38fd abbc
00000390: 46d6 483d 0f1d 3b3d e776 dfbc 945a 133d
000003a0: 160a a8bb 1293 cbbc f089 e83b 0305 233d
000003b0: 5a2d 32be bf83 8cbd 133d e93b e8f1 5bbc
000003c0: fda7 3cbd 2685 69bd aa7c a6bd 6c57 503d
000003d0: e456 75bc 005a 6a3c 6695 243d bc87 8ebd
000003e0: 3307 e83c f037 b0bd 85b0 0f3c 6f26 f73c
000003f0: 4b50 a039 2a99 97bd e46d aabd a6a4 f8bd
0.060221773 0.0044675595 -0.027987948 0.0010385127 -0.019117275 -0.020016637 0.041281193 -0.03193264
-0.08813994 -0.04751591 -0.040476035 -0.016293759 0.0442493 0.047659267 -0.012846148 0.025416367
-0.09380894 -0.020762846 0.11287285 0.07532127 -0.078957014 0.010800097 -0.03656976 0.013601209
0.06891538 -0.053681765 -0.07172071 0.011777693 0.037991527 0.03759789 0.11546119 0.00045045483
0.11799446 0.0654212 -0.02290013 -0.029848393 0.028825747 0.021573495 0.046166956 -0.037961565
0.045780625 0.07477254 0.027647654 0.12953025 0.041462187 0.03790756 0.09444787 -0.047093347
-0.09915636 -0.0075833006 -0.015969012 0.11184486 0.064771 0.023157658 -0.032617427 0.08999106
-0.005637091 -0.072620645 0.069551386 -0.034736026 0.0969591 -0.020661553 -0.030045228 -0.027177675
-0.018687641 0.047253173 -0.016285315 -0.045590896 -0.09805714 0.014032217 0.05169857 0.0010647754
-0.009291353 0.0042605773 0.08796391 -0.01965646 -0.023719689 0.070109345 0.12969226 0.046185754
0.03816175 -0.038637508 -0.014785122 0.0028997005 -0.0055890516 0.014910204 -0.067193784 0.07078532
-0.042828944 0.12116428 -0.05073108 0.0019203277 0.0038769082 -0.042972736 -0.006236245 -0.035609003
0.06499339 0.05479954 0.00259581 -0.104225 -0.016927881 0.093320906 -0.043552432 -0.028114723
0.13259658 -0.03205702 0.10789623 -0.050187502 0.03491009 0.062759236 0.09294827 -0.04074855
-0.10658315 -0.06531426 0.02946828 -0.043337326 -0.032283626 0.043195635 -0.01807178 0.037192184
-0.006548853 -0.017972803 -0.038622633 -0.053349216 -0.04336968 -0.0028782818 -0.011397875 0.10228797
0.003385618 0.055996 0.034636497 0.02189399 -0.007843074 0.046537723 -0.09173766 -0.0076592737
-0.035674896 0.044669826 -0.054173384 -0.012366209 -0.051075876 -0.02624911 0.070062384 -0.13767688
0.04106606 0.05524914 0.00409604 -0.12146852 -0.051441867 0.0060956245 0.07986374 -0.053851817
0.011503969 -0.04857763 0.036790606 -0.09385968 -0.12073667 0.045192305 0.010930856 -0.046419058
0.04096956 0.053726614 0.037151795 -0.02779792 0.036282048 0.03327087 0.029743878 0.033258133
0.054308515 -0.050928183 0.0093196975 -0.0631052 -0.07647707 0.044201642 -0.11531645 0.037839886
-0.027852936 0.03937809 -0.103712164 0.034433782 0.031045306 0.041443598 -0.009594771 -0.115426935
-0.07926005 0.018086696 0.033436995 -0.040325202 -0.07190302 0.0784425 -0.020906819 -0.01928743
0.06591447 -0.067949444 -0.05056891 -0.03988874 0.06413014 -0.093608625 -0.07582445 0.059285067
0.05049654 -0.13741249 -0.0627967 0.07769419 0.04385537 -0.08725568 -0.081749514 -0.12030181
0.054984022 -0.10274854 0.038523663 0.07940301 -0.036660008 -0.14032342 -0.037824746 0.030409887
-0.015689952 0.04226396 -0.029316872 0.041250728 0.021578666 0.019451225 -0.06898616 0.028983478
0.027111156 0.050461687 -0.09760554 -0.020994768 0.049032472 0.04568201 -0.027278377 0.035975054
-0.0051281555 -0.024850402 0.0070965216 0.0397997 -0.17400113 -0.06861066 0.0071178763 -0.013424374
-0.046058644 -0.057011746 -0.081292465 0.050864622 -0.01497433 0.014303684 0.04018154 -0.06959483
0.028323745 -0.08604419 0.008770113 0.030169694 0.000305774 -0.074022606 -0.08321741 -0.12140779

action_model._discrete_distribution.branches.0.weight f4 [1, 128]
00000000: 97eb 9d3a 43ab 5c3c 00c6 0f3c 750c 313c
00000010: 0511 cd39 87d4 423c 4a6f 813b a2da 5b3c
00000020: 4936 843b 1d99 43bc feaa 923a e3f1 903c
00000030: 6096 1ebb 1563 c2bb 0daa 353b 8f54 5c3c
00000040: da65 fb3a 92f5 94b8 3f18 a13b 56b0 c43b
00000050: d1f9 00bc c74f 403b 1152 04ba 6352 2abc
00000060: dba3 543c c35b e4bb 1378 443b d563 61bc
00000070: 9bc6 9bbb 231d 983c 5828 2bbc 8b40 f53b
00000080: 3b6e 7d3a b50b ddbb 6399 50bb 2937 0b3b
00000090: 6874 abbc 185c fb3b 6f28 423c e022 8fbb
000000a0: c372 82bb 32fa 56bc 73cf 2b3c 5fd1 983c
000000b0: 0561 4ebc 12b6 3dba f642 2ebb e784 d239
000000c0: ab38 30bc 52f7 313c 8c22 063b 3b9a 8cbb
000000d0: 7b71 053c bad9 a0bb 0b53 0dbc 7c10 3bbc
000000e0: 2a4b 733b 8059 0ebb 65d0 e3bb 8b2d faba
000000f0: 26e3 b33b 237d ad3a 1124 05bb eaa9 7ebc
00000100: 4256 043a 39c9 0e3c 5bac d23a 6a44 57bc
00000110: b742 093c bfc1 aebb e7d4 d73a 090b 9b3b
00000120: 6747 183c e09e d93b d326 c1bb c43d 3abc
00000130: 3fe2 0abb 05f0 cb3b 959d 7339 7f1a 72bb
00000140: d092 ba3c 9bfa 5d3c 7704 cd3c 7512 f0bb
00000150: 9608 48bc 65f6 38bc e75b 3939 5b4a 35bc
00000160: e3e1 433b f845 28bc 45c6 9b3c 4d89 b83b
00000170: 53e3 7a3c 8d18 a5ba f31b 263c c298 62bc
00000180: fb4d 5f3c 8ac4 873b 7c04 0abb 95b4 443c
00000190: f154 353c 1744 803c 4915 c2bb 65cf 68bc
000001a0: 4f26 843b 5b25 213a e3bf 453b 83bf 7cba
000001b0: 0e51 823b c870 d7bb 6f27 4d3c d475 843b
000001c0: 6879 d9bb 2b32 313b cd11 723c d719 8bbc
000001d0: 7f29 203c adb0 ab3b ad6d 323c df92 38bc
000001e0: 0b3f c83b 190e 4cbb 5c99 c7bb 2556 523b
000001f0: 8393 33bc 55d7 a63b cc83 c93b f355 8dbb
0.0012048361 0.013468566 0.008775234 0.010806193 0.00039113328 0.011891491 0.0039500343 0.013418825
0.0040347916 -0.0119383605 0.0011189876 0.017693466 -0.0024198517 -0.0059322217 0.0027719766 0.013447895
0.0019180134 -7.102931e-05 0.0049162204 0.006002466 -0.007872061 0.0029344426 -0.0005047629 -0.010395619
0.012978519 -0.0069689467 0.0029978796 -0.013756712 -0.0047539 0.018568581 -0.01044663 0.0074845008
0.00096676097 -0.0067457804 -0.0031829707 0.0021242595 -0.02092953 0.0076708905 0.01185046 -0.004368171
-0.003980966 -0.013121175 0.0104864715 0.018654523 -0.012596373 -0.00072369084 -0.0026590205 0.0004015334
-0.010755698 0.010862188 0.002046737 -0.0042908466 0.008144732 -0.0049087675 -0.008625756 -0.011417504
0.0037123659 -0.0021720827 -0.006952333 -0.0019087059 0.0054897247 0.0013236146 -0.0020315687 -0.01554344
0.0005048254 0.008714967 0.0016073094 -0.01313887 0.008377722 -0.005333155 0.0016466648 0.00473154
0.009294367 0.006641254 -0.005894521 -0.011367265 -0.0021191982 0.006223681 0.0002323299 -0.0036942062
0.022775084 0.0135485185 0.025026543 -0.007326419 -0.012209078 -0.011289214 0.00017677211 -0.011065091
0.0029889278 -0.010270588 0.01901544 0.005631602 0.015312987 -0.0012595818 0.0101385 -0.013830366
0.013629432 0.0041433023 -0.0021059802 0.012005945 0.011067615 0.015657468 -0.0059229475 -0.014209603
0.004032887 0.0006147229 0.0030174188 -0.00096415746 0.0039769476 -0.006574724 0.012521609 0.0040423665
-0.006636787 0.002703796 0.014774752 -0.016980095 0.009775518 0.0052395673 0.010890407 -0.011265486
0.006111031 -0.0031136333 -0.00609128 0.0032094803 -0.0109604625 0.0050915875 0.0061497446 -0.0043132245

network_body._body_endoder.seq_layers.0.bias f4 [128]
00000000: d02e dc3c ed89 46bc 3c3a 72bd a0a4 3cba
00000010: c25a cd3c 0301 69bb f79b 533d 7b98 993c
00000020: 65dd a73c ae4f ca3a 5a4f f0bc b3be 183d
00000030: 53ef 4bbd 0679 24bc 2415 f23c 761e c83c
00000040: b72d 093d 7968 8b3c 0b2a 1bbd dc82 ff3d
00000050: 6431 313c 69b4 27bb 73e6 da3b d0d7 d5bc
00000060: 7dd8 833d 120c ee3c bce7 7c3c bbf7 e2bc
00000070: dea8 3d3d 49cb 21bc ab3d 05bd 49d5 01bc
00000080: 07f7 f53c 3a18 c03b 6bdd 9c3b 49ac 853c
00000090: 3e6f 8a3d 8986 0dbd fa93 a63d dc72 043d
000000a0: 670b 2cbb 3042 4f3c 0873 0f3d b079 46bc
000000b0: 5a93 113d d647 92bc c75b abbd 8e0b cdbb
000000c0: 2de3 61b7 e6ba 2fbc f134 0a3d 38bb 13bd
000000d0: 5446 0a3d 5dfd 1ebd 4989 69bd 228f 0cbd
000000e0: cfe6 d3ba 1e3c 323d f3f9 3a3d f479 98bc
000000f0: 1a7a c03d c593 b7bd dbc2 80bc a2e7 503c
00000100: 3135 5abd 1205 89bd 8c57 473d f586 ce3c
00000110: ed56 74bc fdd9 ec3d 4a15 d4bc 16cc b73c
00000120: 5579 ac3d 4676 bf3d 0af0 e93d 6c98 9bbc
00000130: cc7c f93d 1646 10bd 8400 71bd 6cf0 413d
00000140: 7f49 cb39 acb2 e83d 7c90 a1bc 2b08 543d
00000150: 7ef1 b9bb bd35 753c 637b eebc ddc7 2ebc
00000160: 0a0a 7f3c 4295 8fbd 9155 8abc 99e4 a33d
00000170: 38d9 163d e2e9 f6bc 0e3b ff3c 54c8 0c3d
00000180: f899 2c3d 80f3 b3bc 44c5 febc 01c4 353c
00000190: 8e56 60bd 13dd a53d ca16 0f3d 7f1b 8c3c
000001a0: 434b 843d ea55 8c3d 208c e23d 10de e5bc
000001b0: 2772 1d3d fa23 5bbc 581c bdbc 6676 a9bb
000001c0: ff36 443d 9340 35bb 648d 28bd 18eb c63d
000001d0: 1db1 19bd 0cc3 7f3d 4b37 56bd 406e b3bd
000001e0: f216 7fbc 183d 003e eb28 f23b b06c 213c
000001f0: fcaa 55bd 1887 8fbd 8f12 193d f186 02bd
0.02687779 -0.012117845 -0.059137568 -0.0007196162 0.02506769 -0.0035553582 0.05166241 0.018749466
0.020491311 0.0015435123 -0.029334713 0.03729124 -0.049788784 -0.01003862 0.029551096 0.024428587
0.033490863 0.01701759 -0.037881892 0.12476131 0.010814998 -0.002558971 0.0066803037 -0.026103884
0.06437776 0.02905849 0.015436109 -0.027706018 0.046303622 -0.009875127 -0.032529514 -0.007924386
0.030025018 0.005862263 0.0047871373 0.016317504 0.06759499 -0.03455213 0.08133693 0.0323361
-0.0026251914 0.012650058 0.03502181 -0.0121139735 0.035540916 -0.01785652 -0.083671145 -0.006257481
-1.3463939e-05 -0.010725712 0.033741895 -0.036067218 0.033758476 -0.038815845 -0.05701569 -0.03431619
-0.0016166809 0.043514363 0.045648526 -0.01861284 0.09398289 -0.08963732 -0.015717914 0.012750538
-0.053273384 -0.0669042 0.048667476 0.025210837 -0.014913303 0.115650155 -0.025889058 0.022436183
0.0842158 0.09348731 0.11422737 -0.018993579 0.12182006 -0.03522309 -0.058838382 0.047348425
0.00038773936 0.11362204 -0.019722216 0.051765602 -0.00567454 0.0149664255 -0.02911157 -0.010667768
0.015566358 -0.070108905 -0.016886504 0.08002586 0.03682825 -0.03014082 0.03115609 0.034370735
0.042139024 -0.021966696 -0.031099923 0.011094094 -0.054770045 0.08098807 0.034933843 0.017102955
0.064596675 0.06852324 0.11061883 -0.02805999 0.038438942 -0.013375277 -0.023084804 -0.005171585
0.04790401 -0.0027656897 -0.041150466 0.09712809 -0.037522424 0.06244187 -0.052298825 -0.08761263
-0.015569435 0.12523305 0.0073901317 0.009852573 -0.052165017 -0.07008189 0.037371214 -0.03186697

network_body._body_endoder.seq_layers.0.weight f4 [128, 17]
00000000: 4e72 7c3e 4bd2 a8bd 3ad6 3ebe 676f c83c
00000010: 858b e3be 276f 343b cb0f 953e 3a63 0fbe
00000020: 0fa6 6a3e bf72 453c 4c07 d03a c9f4 a23e
00000030: 132f 483e 0f77 6abe bf1e 853e 4221 ab3e
00000040: 3e36 ff3e 2db5 413d c9d4 a1bd 5608 a53d
00000050: 213d 093e 0af0 f73d 9bb6 eebd d38c 47be
00000060: c8fa 96be 1372 6dbe ec48 963d d64b b1be
00000070: 8466 323e 71d4 afbe 02e0 d63e ebde 433e
00000080: 8368 5a3d 86e3 f23e 3e41 d73c 3292 903e
00000090: 20fb c53e e819 583e 3f65 5dbb 00fb d3bd
000000a0: d500 8f3e b9a7 ca3e 1a36 5b3e 9474 273e
000000b0: 0066 f2bd 1383 e03b 980f 5d3e cf2d 8abd
000000c0: 166f 8ebe d6f6 ed3c a786 0cbe 65e1 f43d
000000d0: feec ae3e 73e1 38bd 856d 803c 8ae5 9ebd
000000e0: 3558 353e ef37 b03d 6d29 cabd 3160 4c3e
000000f0: 1aca 92be db37 d13d e50c 16bc ed1f fdbc
00000100: dbe7 df3d 6dbb 553e fd45 b13d 9061 ebbd
00000110: 9c44 303d c9fe 26be afa6 793d 050c 47be
00000120: 37f7 fc3d 4e90 f63e c087 76be 98ce 93bd
00000130: cf2c 013e a7ad e13b 52fa 963e ded8 9ebd
00000140: 29f2 583e 7552 d7bd 28d4 7d3e 9690 8cbe
00000150: 836b 13be 0ca9 233f c8d5 8f3e 04aa 10bd
00000160: c14f 72bb 6a37 7a3e 8118 603d 3baa b13e
00000170: 8d62 1b3e c877 243d f8a3 d8bc 36f2 60be
00000180: 119e 063f f65e 83be 9d29 403e 2f69 dcbe
00000190: 33bc 953d 058f 293e 0f1d a0bd 7d69 1c3e
000001a0: 748c d1bc ce73 093e ab55 b2be f892 8bbe
000001b0: 6ded 0cbe d16d 91bd 91ff 433e 09dd eabd
000001c0: 264d 1b3f d411 22bc a16c f33d adbf 3f3e
000001d0: 1ab6 f9bd 396e d13e fe78 623e b87e 583d
000001e0: 341f f73e 6fa8 57bc ea8c fe3c 11cb ab3d
000001f0: dd77 723e 6ac8 03bf 43c9 923d 6d2a 41bd
00000200: 4848 f4be 1265 1a3d d974 853e e726 01be
00000210: 0bbe fdbd b0bd 413e 94fa adbe 1957 613e
00000220: 5bc4 693e 9ff3 e13d 8cc4 c9bd eeb9 893e
00000230: 50ac 543e 0d52 223e dda3 2ebe 0e57 d83e
00000240: ca0a bfbc 92c1 67be 762c 52be 5e67 313c
00000250: 6d7e 96be 0576 973e af09 bf3c 4a72 28bc
00000260: f51b ef3e 71c1 cb3e 949a cbbd bea5 eebd
00000270: 94f5 7cbe 8b4d 943e 82be c9bd b2dd 12bc
00000280: 53ff c8bd 9fe5 c2bc 3339 5f3e 9296 02be
00000290: b1e7 973e 96be 593e a0dc 513d 8fb2 e4bd
000002a0: e151 5d3e 6d3b e2bd 1783 e73d 6da3 02be
000002b0: 8d96 82be 2ff7 8c3e bff0 17bc a29c f0be
000002c0: 2a12 18bf 26ad 973e c17a c43e 454a ad3c
000002d0: 3394 7e3e e579 33be fa45 86bd 3c4d c4bd
000002e0: d5ed 763e 7d26 d7be f965 d8bd 1c8a 913a
000002f0: 91ad babe 72f6 713e 260f 903e 0892 25be
00000300: 3ea2 453e 09f5 01bf a4b7 c0be d7c8 2c3e
00000310: 3ba0 7cbd 89c7 5abe c89e 58be ff4d 8a3d
00000320: 71ab 053f d593 acbe 3f40 96bc fcba 00be
00000330: be9f 05be 74ae febd 104b 05be 7181 63be
00000340: a3b1 91be e895 453e 1bb1 d23e 9ca9 373d
00000350: 9897 433e 741f ffbd 3898 4ebe 9615 e8be
00000360: 613c 1d3e acd4 d0be 35ef c0be ebb1 babe
00000370: 431c efbd ddb9 363e b854 433c 7f64 893d
00000380: fe26 0dbd a358 433e 5321 34be bb43 2ebc
00000390: 724f d43d 2c1f 563d 792c ffbd b64c 37be
000003a0: df23 b93c d3ac 71be 700b 85be 6e49 1d3d
000003b0: 4679 81be e91f 493e cce1 aa3d ba90 d73e
000003c0: 20d1 88be a278 b5be b717 d33e 8b19 fdbe
000003d0: 45e6 07be dcfc 3d3b 1277 4d3e 392b ddbd
000003e0: 398c 173f 7cbc ab3d 0917 c4be cd69 a63d
000003f0: ce09 71be 9425 42be ad7c a5bd f75c a23b
0.24652979 -0.08243235 -0.18636408 0.024467183 -0.44442382 0.0027532072 0.29113612 -0.14002696
0.22914909 0.012051283 0.0015871315 0.3182738 0.19549207 -0.2289698 0.2600002 0.3342381
0.4984607 0.047291923 -0.07901914 0.080582306 0.13402225 0.12106331 -0.11655923 -0.19487314
-0.29488206 -0.23188047 0.073381275 -0.3462817 0.17421919 -0.34341767 0.4196778 0.19128005
0.053322326 0.47439212 0.026276227 0.28236538 0.38668156 0.21103632 -0.0033782271 -0.10350609
0.27930322 0.39581087 0.21407357 0.16353065 -0.11835861 0.0068515628 0.2158798 -0.067470185
-0.27819127 0.029048365 -0.13723241 0.11957053 0.34165186 -0.04513688 0.015677223 -0.07758625
0.1770943 0.086044185 -0.098711826 0.19958569 -0.28669816 0.10215732 -0.009158348 -0.030899012
0.10932895 0.20872279 0.08655927 -0.11493218 0.04303418 -0.1630813 0.060949977 -0.19438179
0.1235184 0.4815697 -0.24075222 -0.07217139 0.1261475 0.006887156 0.29487854 -0.07756208
0.21186127 -0.10513774 0.24787962 -0.2745406 -0.14396481 0.6392982 0.2809279 -0.03531839
-0.0036973807 0.24435201 0.05471087 0.34700188 0.15174313 0.040153295 -0.026445374 -0.21967396
0.5258494 -0.25658387 0.18765874 -0.43049 0.07311287 0.16558464 -0.078180425 0.15274616
-0.025579669 0.13423082 -0.34830984 -0.27260566 -0.13762446 -0.07101024 0.1914046 -0.1146794
0.60664594 -0.009891946 0.11885954 0.18725462 -0.12192936 0.40904406 0.22116467 0.052855223
0.48265994 -0.013162716 0.031073052 0.08388341 0.23678537 -0.5147768 0.07167294 -0.0471596
-0.47711396 0.037694044 0.2606571 -0.12612496 -0.123897634 0.18920016 -0.33980238 0.22005881
0.2282881 0.11032795 -0.098519415 0.26899666 0.20768857 0.15851612 -0.17054696 0.42253917
-0.023320574 -0.22632435 -0.20524773 0.010827867 -0.2939333 0.2958223 0.023320047 -0.010281155
0.46701017 0.39796022 -0.09941593 -0.116527066 -0.24703056 0.2896541 -0.098507896 -0.008963989
-0.09814324 -0.023791132 0.21799164 -0.1275275 0.29668954 0.21264109 0.051235795 -0.1116687
0.21613266 -0.11046491 0.113043 -0.12757654 -0.25505486 0.27532336 -0.009273707 -0.469945
-0.59402716 0.2962429 0.38374904 0.021153579 0.24861221 -0.17526968 -0.06556316 -0.09585044
0.24114163 -0.42021552 -0.10566325 0.0011103782 -0.36460546 0.23629168 0.28136557 -0.16168988
0.19300172 -0.5076452 -0.37640107 0.1687349 -0.061676245 -0.21365179 -0.2115432 0.06753158
0.52214724 -0.33706537 -0.018341182 -0.12571329 -0.13049218 -0.12435618 -0.13016915 -0.22217347
-0.2845584 0.19295466 0.41150746 0.044839486 0.19100797 -0.12457171 -0.20175254 -0.4532897
0.15355064 -0.40787256 -0.376825 -0.36463866 -0.11675312 0.17844339 0.011922054 0.06708621
-0.034461014 0.19076781 -0.17590837 -0.010636265 0.103667155 0.05227582 -0.12459654 -0.17900357
0.022600112 -0.23601083 -0.2598529 0.038400106 -0.25287837 0.19641079 0.083438486 0.42102605
-0.2672205 -0.35443598 0.4122903 -0.4943355 -0.13271435 0.0028989827 0.20064953 -0.1079926
0.5919834 0.0838556 -0.38298824 0.08125649 -0.23538896 -0.18959647 -0.08080421 0.00495493

network_body._body_endoder.seq_layers.2.bias f4 [128]
00000000: 8ffb 703d 0bef dd3c ee10 47bc e1c0 e43b
00000010: 4f99 38bd 8e13 ec3a 8cb4 d73b 1cf9 cfbc
00000020: d4bb 59bc 5a9b c4bb bf69 ccbb 19d0 70bc
00000030: 1fe6 a43c 790b 333d 1812 af3c 27a3 803c
00000040: 53d7 a4bc e6e1 153c 6684 973d 15ab a73c
00000050: 015f c7bc daed 5f3c 9396 6f3c e163 51bc
00000060: b82a 233d 2251 0bbd 14f2 c4bc 2b61 d53c
00000070: 5b05 a23c a23f 9d3c 57ed a83d e294 bfbc
00000080: 0c88 593d 27d2 3b3d bad2 ab3b c5c4 0bbd
00000090: f27a 303d 1cd3 7e3c c0ea 853c 78ad 7dbc
000000a0: 43e3 2f3d 7a3a 053d f2ed 423b 7cf2 7e3d
000000b0: 6494 5f3c 0668 113c 462a 353d e340 e0bc
000000c0: 1b9b 2bbd 79bb 6dbc 619e 9b3c 8642 853d
000000d0: 08ae 9f3d 6d85 a23c c0ac 33bd 8090 473d
000000e0: 5d63 71bc a34d 37bc 0099 553d c04f c8bc
000000f0: 9441 3b3d 0268 ae3c a5c3 c7bc 88e4 13bd
00000100: ebeb a43c 4bad 953c 3c60 e7bc c623 22bd
00000110: 2bb3 053b 67c2 34bb f05c aa3c 84bd 5e3c
00000120: 8370 e53b ed99 7b3d 4126 853d a1d0 7c3c
00000130: 1ae4 21bc 2e0d 873d 3709 683d ed5b 503d
00000140: a958 a33c ccf4 653c c2e0 5dbc 9378 aa3c
00000150: 73ec 8fbc b579 003d be2e 97bc c5cd 3d3d
00000160: 8acf 8dbd 3cb1 853d 1798 6ebd d346 233c
00000170: 5a10 c5bb ff56 96bc dca5 333c 43ad 71bc
00000180: 4442 a73d 440e 433d 5046 4abc cdf5 04bd
00000190: ef15 863b 1421 5c3d 7d16 22bd 4c12 2fbc
000001a0: 400e b53d a015 66bd 3e24 643d ee12 cdbb
000001b0: c142 223d 15e0 4a3d b30d 803d 7bfa 79bd
000001c0: c5c6 2ebd 156c 02bd 3b2a 8a3a b4e9 a5bb
000001d0: ab91 2fbd 3516 183d 1f1d 11bd 41bd cb3c
000001e0: 73c1 493c ea6c ddbb a965 85bc d29a 01bd
000001f0: 8a11 f63a c647 993c 731f 613c d85c 713d
0.058833655 0.027091524 -0.012150032 0.006981001 -0.04506808 0.0018011199 0.006582802 -0.02538734
-0.013289411 -0.0059999647 -0.006238192 -0.014698052 0.020129262 0.043712113 0.021370932 0.015702797
-0.020122206 0.009148097 0.073983 0.02046732 -0.024337294 0.013667548 0.014623302 -0.012780161
0.03983566 -0.03401292 -0.024041213 0.02604731 0.019777944 0.019195382 0.08248394 -0.023386423
0.05310826 0.045854714 0.0052436264 -0.0341232 0.043086 0.015553262 0.01634729 -0.015483253
0.042941343 0.03252647 0.0029743877 0.06224297 0.013646219 0.008874899 0.04422977 -0.02737469
-0.041895967 -0.014510029 0.01899642 0.06506829 0.07796866 0.019839013 -0.04386592 0.04872179
-0.014733163 -0.011187944 0.052147865 -0.02445209 0.045716837 0.02128983 -0.024385283 -0.036106616
0.020132026 0.01827111 -0.02824413 -0.039584897 0.0020400982 -0.0027581693 0.02079627 0.013594989
0.007001938 0.061426092 0.06501437 0.0154306 -0.009881044 0.06594311 0.056649413 0.050868917
0.019939737 0.014035415 -0.013542356 0.020809447 -0.017568802 0.03136607 -0.018454906 0.046338815
-0.069243506 0.065279454 -0.058250513 0.009965616 -0.006013912 -0.01835203 0.010964837 -0.0147507815
0.08166936 0.047621027 -0.012345865 -0.032460976 0.00409197 0.053742483 -0.039572228 -0.010685515
0.088406086 -0.056172967 0.055698626 -0.00625836 0.039614443 0.049530108 0.06252613 -0.061029892
-0.04267003 -0.031841356 0.001054115 -0.00506326 -0.04286353 0.037130553 -0.035428163 0.024870517
0.012314188 -0.0067573683 -0.016283827 -0.03164179 0.0018773538 0.018710982 0.013740408 0.058926433

network_body._body_endoder.seq_layers.2.weight f4 [128, 128]
00000000: 64d9 883d 1f46 7fbc a89d dabd 13a4 03bd
00000010: 6aa2 b9bd cff3 7cbd 45f6 8f3d 89d4 abbd
00000020: 8d9b 74bd 2ceb b53c c61d c0bd aaa5 e73d
00000030: bbc9 e03c fea3 eabd 3907 cabd 81cc db3c
00000040: 93a6 853d 246c c0ba 2322 323d fccc f03c
00000050: da85 64bb 8fe0 c1bd fa65 f1bc 8bb0 8a3d
00000060: 83cd e73d fb6c 163e 9680 32bd ab5c 6abe
00000070: 179b bf3d 093b 01be f00b 96bc 8f36 dd3d
00000080: 9baa dcbd a1ae 83bd 56fa 0b3d e8bc 30be
00000090: 0620 7bbd c811 7abd e75a e13d 5436 c53c
000000a0: 4794 d33d 2ce0 8dbc 4718 1fbb f7d2 313e
000000b0: f5a7 f03d c072 963d 23bb a4bd cfdd 35bc
000000c0: aad1 84bc 4891 81bc 47b2 f33d e8bb 063d
000000d0: 36f9 3ebc 85ee 27be f1c1 513e a5f2 8abe
000000e0: 2c0e 823d 04c5 d83c 5355 27be 84e7 36be
000000f0: 9d3b 7b3e c480 58be bb4a 84bd 357f 26bd
00000100: f451 1fbe 0514 b2bd 42a5 acbd 2fee bdbd
00000110: cef9 71be 6c6b 043e 90ef b33c 6eb1 d33c
00000120: fb49 633e dacf 2bbd 2c63 2d3e b1e9 703c
00000130: 34d6 22be 5f7d a83d 3f99 003e b040 0a3e
00000140: f71a eabc e9dd 5f3d ccdc 59bc d37a c63d
00000150: 546e acbc 30e9 d93d 431d c4bc 8f35 4dbd
00000160: 5159 1bbd 458b 3c3d 6579 4a3e 2b5a 653d
00000170: cf65 843d 7c26 8b3d b50d afbd cf3d 2fbd
00000180: 4e64 0a3d af45 d5bd ec7a 85bd 5988 9abd
00000190: b50a 4abd 2936 4f3d 3550 cb3d 5a56 1abe
000001a0: 3790 5cbd ad46 023d f751 31bd f6e5 d03d
000001b0: ae93 0c3d 5964 e4bd bc47 a7bd d9b8 8cbc
000001c0: 33fc 563c b502 ec3c f895 6ebd 86ec de3d
000001d0: f1f2 e6bc c44d 58bd 8ba3 263e 6339 2cbe
000001e0: 8f4d b13c def0 2cbe 10a9 c2bc 4761 4fbc
000001f0: 188d 1dbd 92af c2bd 8116 943d 50aa fdbd
00000200: 52f6 0a3c 4b47 413e 6499 1c3d 7542 343e
00000210: 2d6b d83d 83cd 423d 3c9f e93d fb45 653d
00000220: 689a 053e 0ff1 8fbb 91ab b6bd 02cf 0bbc
00000230: 19ed 22be 6b8a d93d 0c48 e0bc 1e73 cfbc
00000240: 158e c4bd bab6 a93c 3d23 16bb fa48 92bb
00000250: c789 6cbe 47b5 90bd 4c1c 433c e235 ccbd
00000260: fe16 1cbe 3f9c 69bd 3fbf 853b fbb0 17bc
00000270: 5e8a d6bd 106b 343d 3cc0 35be 5b5f d33c
00000280: a497 c8bc 3e94 d2bb 9179 6a3e cc82 cf3d
00000290: 2275 8dbc f576 f1bd c9d6 94bd 9e73 bcbd
000002a0: adb6 66bd 000b 4abd 3645 a43d 133b 0c3d
000002b0: 23ca 16be 6998 183e 8fea 8c3c ed4e 3c3c
000002c0: e2c1 65bd 575d f43d dc70 26bc afb2 8b3d
000002d0: bc88 da3c 37d9 37bd 1f59 d5bd 388f 0f3e
000002e0: 4dbd b13c 63b7 f83d d0d5 7d3d d725 5dbc
000002f0: e2b5 d6bd 3944 c3bd c81b 4ebd 4fa0 c93d
00000300: 4c98 01bd 2386 f93c 8e06 03bc 2f98 7fbd
00000310: 29ff 27be 3a5b 0f3d 6370 36be c97f 9a3d
00000320: 6333 0f3e b888 44be 49d2 e3bd 2dc8 a2bc
00000330: 484b 83bb b182 273e 8622 22bd 320c 71bd
00000340: 0614 1e3e 627c 043b 3cff 143e 6c1f 3ebe
00000350: 250b e5bd c836 d53d a6c2 cb3c 90f2 b63d
00000360: 6b47 06be 005b 0cbd 68ee 15bc ef45 c1bd
00000370: b6f2 0d3e cde1 2bbc 1236 1b3b 1d44 ec3d
00000380: 961f 183d ae4c 143e 47fe be3c 8c5e c13d
00000390: 63e6 5b3d 92c0 0fbe 643d 93bd 8728 c03d
000003a0: cda1 29bc 07af 7a3d ab94 a6bd 1b0d 143d
000003b0: a48c 2fbe 1a17 d83a 3190 3b3d 840b d1bd
000003c0: 7b63 07be 91b3 6a3e f943 3c3d da37 30bd
000003d0: 9710 21be c508 973c e7e8 883d b03a 01be
000003e0: e22e 88bc d388 95bd 0a4a 053d c255 0f3d
000003f0: 4a73 1abd eb22 aa3b 33c0 123d 8b77 47be
0.06682089 -0.015580683 -0.10674602 -0.032138895 -0.09064181 -0.06175595 0.07029394 -0.08390147
-0.059718657 0.022206865 -0.09380679 0.11310895 0.027439943 -0.1145706 -0.09864659 0.026830913
0.06525912 -0.0014680666 0.043489587 0.02939462 -0.003486982 -0.09466659 -0.029467572 0.06771954
0.11318495 0.1469001 -0.04357966 -0.22886913 0.09355753 -0.12620176 -0.01831624 0.10801422
-0.10774728 -0.06429792 0.034174286 -0.17259562 -0.061309837 -0.061052114 0.11003666 0.024073757
0.10331016 -0.017318808 -0.0024275945 0.17365633 0.11750785 0.073461056 -0.08043506 -0.011100247
-0.016213257 -0.015816346 0.11899238 0.032894045 -0.011656096 -0.16399582 0.20484139 -0.27138248
0.06350359 0.026461132 -0.16341142 -0.17861754 0.2453446 -0.2114287 -0.06459566 -0.040648658
-0.15558606 -0.08695225 -0.08429958 -0.092739455 -0.23630449 0.12931603 0.021964818 0.025841441
0.2219619 -0.04194627 0.16932362 0.014704154 -0.15902025 0.08227038 0.12558459 0.13501239
-0.028577311 0.05465499 -0.013297271 0.096913956 -0.021048702 0.1064018 -0.023939734 -0.050099906
-0.037926976 0.046031255 0.19772871 0.055994194 0.06464731 0.0679445 -0.08547536 -0.042783555
0.033787064 -0.10413682 -0.06517586 -0.075455375 -0.049326617 0.05058876 0.09927408 -0.15072003
-0.05384847 0.031805683 -0.04329106 0.102001116 0.034320526 -0.11151952 -0.08167979 -0.017177986
0.013121652 0.028809885 -0.05824849 0.10884957 -0.028192015 -0.052808538 0.16273324 -0.16818766
0.021643428 -0.16888759 -0.023762256 -0.01265747 -0.038464636 -0.09506144 0.07230855 -0.12386
0.008481579 0.18874852 0.038232222 0.17603476 0.10567317 0.047559272 0.11407325 0.05597494
0.13047183 -0.00439275 -0.089194424 -0.008533241 -0.15910758 0.10622104 -0.027378105 -0.025323447
-0.095974125 0.020717014 -0.0022909187 -0.004464266 -0.23099433 -0.07065826 0.011908602 -0.09971215
-0.15243146 -0.057033774 0.004081636 -0.009258504 -0.1047561 0.044047415 -0.17749113 0.025802305
-0.02448637 -0.0064263633 0.22897936 0.101323694 -0.017267767 -0.117902674 -0.072675295 -0.0920174
-0.056326557 -0.049326897 0.080210134 0.034236025 -0.14725547 0.1490189 0.01720169 0.011493427
-0.056093104 0.11931866 -0.010158744 0.068211906 0.026676528 -0.044884887 -0.10417389 0.14019477
0.021696711 0.12144353 0.061971486 -0.013497791 -0.1048391 -0.09534497 -0.050319463 0.098450296
-0.031639382 0.03045947 -0.007997168 -0.062400993 -0.1640593 0.03499911 -0.1781631 0.07543904
0.13984446 -0.19192779 -0.11124093 -0.019870842 -0.004006777 0.16358449 -0.039583705 -0.05884952
0.15437326 0.002021574 0.14550489 -0.18566674 -0.11183766 0.10410839 0.024873089 0.08932984
-0.13113181 -0.034266472 -0.009151079 -0.09437167 0.13862118 -0.010490847 0.0023683351 0.11536429
0.037139498 0.14482376 0.023314608 0.094418615 0.05368651 -0.14038303 -0.07189444 0.0938273
-0.010353518 0.061202075 -0.08133825 0.03614531 -0.17143494 0.0016486377 0.04579181 -0.102072746
-0.13221543 0.22920062 0.04596326 -0.043022014 -0.15728985 0.018436799 0.066850476 -0.12620044
-0.016623918 -0.07301488 0.032541312 0.034993894 -0.037707604 0.005192151 0.035827827 -0.19479196
