Assets/Agent Models/CubeAgent.onnx (onnx, 74377 bytes, 8 tensors)

action_model._continuous_distribution.log_sigma f4 [1, 2]
000000 88 00 c7 bd d8 a8 93 bd
       -0.09716898 -0.07209939

action_model._continuous_distribution.mu.bias f4 [2]
000000 e7 9c 62 3c 0c 79 b7 3c
       0.013831354 0.022396587

action_model._continuous_distribution.mu.weight f4 [2, 128]
000000 1c de 6b bd 24 18 92 bd 49 1a 54 bd 1a 0f 69 3d
       -0.057584867 -0.07133511 -0.05178288 0.056899168
000010 10 ae cf ba 41 09 9a 3c 61 71 7c 3b a8 3a 8a bc
       -0.0015844721 0.01880324 0.0038519728 -0.016873673
000020 b9 a0 d1 bd 24 d1 66 3b d2 01 43 3c 0b cb 00 3d
       -0.102357335 0.0035219872 0.011902289 0.031443637
000030 93 5f 40 bb c1 46 67 bd dd db b0 bd 5f 59 13 bd
       -0.0029353842 -0.05646396 -0.086356856 -0.035973903
000040 2b c6 6b 3d 5a 06 75 bd 21 9b cd 3c 07 5f 54 3b
       0.057562035 -0.05982051 0.025098385 0.0032405274
000050 e4 71 6d 3d 07 bf b8 bc ac d2 a7 3c dd 19 bd 3b
       0.057969943 -0.022552026 0.020486198 0.0057709054
000060 bf 0c 8e b9 48 88 95 bc 6b 5a 89 3c 48 8a c7 bd
       -0.00027093847 -0.01825346 0.016766747 -0.09743172
000070 81 a9 f4 3a 45 dc 86 3b 08 5e a8 3c e4 e0 63 bd
       0.0018666239 0.0041156136 0.02055265 -0.055634394
000080 eb 6d 79 bd 56 82 37 bd 7a 59 8f bd 1c ce 0c bd
       -0.06089584 -0.044802032 -0.06999488 -0.03437625
000090 f3 1a 88 bd 2c fc d8 3c c2 e6 21 3d 3d 54 c2 bb
       -0.06645765 0.026487432 0.03952671 -0.005930452
0000a0 12 e0 8b bd ec 44 36 3d 10 72 80 bc 2a 2b b2 bc
       -0.068298474 0.044499323 -0.01567939 -0.021749098
0000b0 99 e5 28 3d f7 74 7f 3b 8a 2a 33 3c a6 b4 09 3d
       0.041234586 0.0038979629 0.010935435 0.033619545
0000c0 43 4e ea bc 3d 2b 76 3d e3 a4 a4 bc 67 a7 aa bb
       -0.028601771 0.06009983 -0.020098155 -0.005207944
0000d0 17 54 d1 bc 74 50 af 3b d0 ff af 3d 3c 76 5e 3c
       -0.025552792 0.005350167 0.08593714 0.013577994
0000e0 99 14 74 3d 30 b1 62 bd 35 20 17 bd 9b 91 09 bd
       0.059589956 -0.05534476 -0.03689595 -0.033586126
0000f0 ab 77 15 bd 2c 4b 22 3d 45 cf fa ba 61 e2 2d bc
       -0.036491077 0.03962247 -0.0019135257 -0.010613055
000100 e6 09 03 bd be 2e 16 3d 02 e9 df 3c 22 e0 4a bc
       -0.03199186 0.03666567 0.027332786 -0.012382539
000110 22 0e 1e b9 d7 c5 60 bb be f7 6f bc e7 7e 72 3d
       -0.00015073319 -0.003429761 -0.014646469 0.059203055
000120 2b 17 bb 3d a9 75 b5 3d d1 5d d0 3c 53 53 d6 3c
       0.09135278 0.088603325 0.02543536 0.026162779
000130 44 41 81 3d c1 e5 08 bd fd a4 c8 3c 8b 61 0d 3d
       0.063112766 -0.033422235 0.024492735 0.034516852
000140 1e 18 81 3d 3a ae a1 3c d3 f3 bb bd 8c f2 42 bd
       0.06303428 0.019736398 -0.09177365 -0.047594592
000150 fd c4 9f bd 7b b9 33 bb 9d 08 4a 3b f1 06 26 bd
       -0.078012444 -0.0027423787 0.0030827888 -0.040533964
000160 84 28 92 3d 7a 86 50 3d fe 4d 94 bd 68 d2 c4 3c
       0.07136634 0.050909497 -0.07241438 0.02402611
000170 b4 a0 be 3c 09 ea ea bd 52 d4 74 bd 34 6b 83 bd
       0.023269989 -0.1147042 -0.059772797 -0.06416932
000180 82 3d b3 3c 0c 5f a2 bd 6f 34 2e 3d a1 76 cf 3d
       0.021879915 -0.07928285 0.042530473 0.101300485
000190 c7 af 5d 3d ec 65 e9 bc 8d dc 93 bd 78 79 12 bd
       0.054122712 -0.028490983 -0.07219801 -0.035760373
0001a0 95 99 55 3c be b1 3b bb e4 53 a3 ba b6 d7 70 bc
       0.013037105 -0.0028639878 -0.0012460914 -0.014699867
0001b0 44 63 b5 3c 16 83 07 be 05 95 d4 bc e8 c6 29 3c
       0.02214206 -0.13233599 -0.025949964 0.010362364
0001c0 d4 b0 2c bb ba 17 b6 3d e0 32 be bd e0 16 24 3d
       -0.0026350515 0.08891244 -0.092870474 0.040060878
0001d0 fc 93 da 3c 7a ab cb bd 72 4b 19 bd c3 d4 53 3d
       0.026681893 -0.09944816 -0.037425466 0.051716577
0001e0 14 f6 10 3d 2d 5b ac bb 53 0b 14 bd 30 1a 01 3c
       0.03539093 -0.0052598924 -0.036143612 0.007879779
0001f0 ca ac 98 3d 07 05 38 bd 14 fc 3a 3c 42 26 7c bd
       0.07454832 -0.04492667 0.011412639 -0.061559923
000200 3d ef b0 3c 93 af 60 bd 70 7d 6b bd 23 73 9d bc
       0.021598453 -0.05485494 -0.057492673 -0.01921994
000210 90 db 73 3d 1d 0a 37 3d ab 50 5a 3d fa d4 a6 bc
       0.059535563 0.04468738 0.053299587 -0.020365227
000220 b3 ff a4 b9 40 7f 43 3d b8 4d b9 bc 15 9c 8c 3d
       -0.00031471028 0.047728777 -0.022620067 0.06865708
000230 7e 4c 89 3b a6 50 ec 3a e9 53 ec bc 5c d9 56 3c
       0.004190027 0.0018029406 -0.028848605 0.013113346
000240 1a 4f 99 3c 2d e1 13 bd 6c 4d 6d 3d 72 f6 03 ba
       0.018714476 -0.036103416 0.057935163 -0.00050339766
000250 fb b0 03 3d f9 fa 9f 3c 80 59 a9 bc 44 dd 94 3c
       0.032151204 0.019528853 -0.02067256 0.018171914
000260 d0 91 05 3d 18 d5 c4 3c 9a e8 65 bc fc a9 2b 3b
       0.03260976 0.024027392 -0.014032507 0.0026193848
000270 67 d7 fb 3b 34 da 95 bd 78 08 72 3d 80 56 e7 3b
       0.00768559 -0.073170096 0.059090108 0.007059872
000280 55 61 93 3d 99 5a e3 bc 65 d2 3d bc 84 2f 6d bd
       0.07196299 -0.027753161 -0.0115858065 -0.057906643
000290 fd bc 4c bd c3 6c 35 bd 1a 24 95 3d a2 91 ca 3d
       -0.04998492 -0.044293176 0.072822765 0.098910585
0002a0 0b 1d 88 bc 5d c9 24 3c 59 37 d4 bd 9c e8 77 bd
       -0.016615411 0.010057774 -0.10362119 -0.060524568
0002b0 9c 17 03 bb 7e 11 89 b9 3f da 57 bd 25 91 b4 bc
       -0.0020003086 -0.0002614371 -0.05269837 -0.022041867
0002c0 ab a3 81 bc 35 1b 0c bd b7 63 df 3d f4 9e 89 bd
       -0.015825113 -0.034205634 0.10907691 -0.06719771
0002d0 6f 4f 16 3c 47 7d 57 bc 17 0b 5e 3d 7c ea a7 3c
       0.009174212 -0.013152427 0.054209795 0.020497553
0002e0 ac e9 d6 bc 12 ef 26 bd de 54 47 bd e1 07 b3 bd
       -0.02623447 -0.04075534 -0.04866492 -0.08741737
0002f0 aa fb 73 3d 66 df 7e 3d 1f a7 c4 3d 2a d2 8b 3d
       0.059566177 0.062224768 0.09602188 0.06827195
000300 24 ae 64 3d a9 ce 04 3d 29 2a c8 bc f4 b5 8f 3d
       0.055830136 0.03242365 -0.024434166 0.07017127
000310 0c 7e c8 3c 1e 85 af 3c 5f e4 67 3d ae c8 b3 bc
       0.024474166 0.02142578 0.056614276 -0.021946277
000320 a4 ae b6 3c 65 4f 7a bd 00 66 01 3d 66 86 46 3d
       0.022300072 -0.061110873 0.031591415 0.048468016
000330 86 9f 9b 39 d4 42 8c 3d 61 e7 25 3d 89 e5 ce 3c
       0.00029682758 0.06848684 0.040503863 0.025255935
000340 63 c3 05 bd 1a 96 95 3d 6e 4d 62 3d 28 ce 89 3d
       -0.03265704 0.0730402 0.055249624 0.06728774
000350 35 1e 8d bc 5b a4 ce 3c 0b 28 f8 3b 8d 2b 0b bd
       -0.017226318 0.025224855 0.007573133 -0.03397708
000360 64 61 ea bc 3d ca 3d 3b 84 35 44 bd ae 48 72 bd
       -0.028610893 0.0028959655 -0.0479026 -0.059151344
000370 25 27 5c bd e2 8f 6e 3c e4 17 92 3d 63 26 09 bd
       -0.05374827 0.0145606715 0.07133463 -0.033483874
000380 1f 8d 18 3d 7e 2c cf 3c b0 4e c6 bd 5f fa 23 bc
       0.03724396 0.02528977 -0.09682977 -0.010008424
000390 eb 16 2c 3b 0f 2c 3a bd c9 01 88 3c 77 0e 95 bd
       0.0026258777 -0.045452174 0.016602414 -0.072781496
0003a0 d8 0f 81 bd 1f c5 b9 bb d3 eb e9 3d 8a 02 f7 bc
       -0.0630185 -0.0056692506 0.11421933 -0.030152578
0003b0 f6 42 19 bd 66 90 05 3c a5 20 c4 bc 77 29 15 3d
       -0.037417375 0.008152103 -0.023941347 0.036416497
0003c0 3f 0a 6c bd 84 8e 27 bd 04 d1 37 bc ba 3c 5b bd
       -0.05762696 -0.040907398 -0.011219267 -0.05352471
0003d0 ef 0c 22 bc c4 92 8e bc f3 57 bd 3d 15 37 a6 bd
       -0.009890779 -0.017403968 0.092452906 -0.08115975
0003e0 95 4a 6b bd a4 4d 09 3d e1 b6 6d bd 8b 1d 38 3d
       -0.057444174 0.03352131 -0.058035735 0.04495005
0003f0 f9 7a 8b bc b2 eb 0d 3c ba 40 14 3d 5e f2 fe bb
       -0.017026411 0.008662151 0.03619454 -0.0077803573

action_model._discrete_distribution.branches.0.weight f4 [1, 128]
000000 40 75 5e bb 0f fd df 3a 38 f0 17 3b 43 42 e6 bb
       -0.0033944398 0.0017088967 0.0023183953 -0.007026942
000010 d7 72 c6 3b 9b b9 00 3b 48 f4 31 bc d5 9d 90 3b
       0.0060561704 0.001964188 -0.010861464 0.0044133463
000020 4b 75 0f bc c7 8a f3 3a a3 23 4c bb 06 84 03 3c
       -0.008755992 0.0018580788 -0.003114917 0.008027082
000030 c3 fb a0 bc 2f b2 41 3c fe 5a 41 bb 1b a0 19 3c
       -0.0196513 0.011822267 -0.0029503698 0.009376551
000040 eb 5e 3f 3c 57 82 45 3c ea a6 b0 3a 09 8f a3 bb
       0.011680345 0.012055001 0.0013477479 -0.0049914164
000050 53 c7 43 ba 5d 1d f2 bb e0 09 a2 ba ba 8f fb 3b
       -0.00074683613 -0.0073887543 -0.0012362562 0.0076770457
000060 0e 89 47 3c c7 89 0b 3c 96 41 88 3c 9d 59 29 bb
       0.0121786725 0.008516735 0.016632836 -0.0025840767
000070 fa db 5b 3b f3 c9 f2 3a 34 dc 17 bc 2d 48 dc 3b
       0.0033547864 0.001852332 -0.009268809 0.006722471
000080 f3 22 61 bb e7 4b 4a 3b 6e 13 2b bc 1f bd 81 b9
       -0.0034353107 0.0030867995 -0.010441644 -0.00024745704
000090 a0 9f cf 3b 60 5f 1a bc bb 7e 10 3b ab 0b 8d 3a
       0.0063361675 -0.009422153 0.0022048193 0.0010760924
0000a0 1d d9 66 3c bf 93 85 3a fa 61 71 3c f7 89 76 3c
       0.01408985 0.0010191126 0.014732832 0.015047542
0000b0 36 59 bf bc b9 dc 32 3c 4d df f1 ba ab a8 fc 3b
       -0.023357969 0.010916882 -0.001845339 0.0077105365
0000c0 b7 6e 11 3c 56 7b 14 bb ae 25 ca ba 47 f0 84 bc
       0.008876494 -0.0022656522 -0.0015422606 -0.016227854
0000d0 ba 79 02 3c 50 9f 7b 3b 37 62 3a 3c 7b 4e 09 3c
       0.007963592 0.0038394518 0.011375955 0.008380528
0000e0 d9 7f 1d 3c 8d 5a d9 bb b5 ec e4 3b 8b 0f ad 39
       0.009613001 -0.006633109 0.0069862255 0.00033008712
0000f0 33 51 c3 3a c6 ad 9a 39 d7 5a a7 3c 2d 87 05 3b
       0.0014901519 0.0002950264 0.020429058 0.002037476
000100 27 7e bd bc fb 1f 96 bb 3a 69 e9 39 11 48 32 3b
       -0.023131443 -0.004581449 0.00044519623 0.00272036
000110 77 0f ce 3c 0a fc e2 bb 9d bf 1b bc 03 ac 19 3b
       0.025153859 -0.006927018 -0.009506133 0.0023448474
000120 99 97 87 3b 07 b8 94 3b 1c e5 8b ba f5 f5 f1 bb
       0.004137945 0.0045385393 -0.0010673138 -0.0073840567
000130 91 1b a1 3b a1 6b 1c 3a 4f 23 40 3c 5c 50 28 3b
       0.0049166162 0.00059669657 0.011727168 0.0025682664
000140 ab 2d 94 3a 34 14 05 bb cc 7a 2c 3c ed e3 de bb
       0.0011305114 -0.0020306231 0.010527324 -0.006802073
000150 66 f1 c9 3b 26 d2 36 bb 63 50 39 bc be 21 21 3c
       0.00616281 -0.0027896254 -0.01131067 0.009834705
000160 2a 15 f3 3b 70 36 cf bb 80 0f fe bb 43 ef 16 3c
       0.0074182944 -0.006323628 -0.0077533126 0.009212318
000170 00 37 e9 ba 28 c3 14 3c de 49 1e 3b 7f 8d 05 3c
       -0.001779288 0.009079732 0.0024152915 0.008151411
000180 e2 f4 6a 3b fb 5f 13 bb d3 a9 86 3a f5 d3 7a 3b
       0.0035851528 -0.0022487629 0.0010274 0.003827331
000190 8a 4e a8 3b 0b c5 ca 3b 95 96 55 bb f9 e8 1b 3b
       0.0051363157 0.00618804 -0.0032590975 0.0023789986
0001a0 8e 80 b3 bb 1f d9 fa bb 27 ab a8 bb 1b 4b ff 3a
       -0.0054779714 -0.0076552774 -0.005147356 0.0019477339
0001b0 5c 17 40 bc 80 6f 5c bb 04 1c 02 bc df 93 f9 ba
       -0.011724319 -0.0033635795 -0.00794125 -0.0019041261
0001c0 ed cf dd 3b d0 2a e4 b9 8b d7 05 bb 19 17 22 3c
       0.0067691715 -0.00043519447 -0.0020422663 0.009893202
0001d0 f3 76 4f bc da 97 ce ba f7 e3 be bb 02 59 ba bb
       -0.012662637 -0.0015761808 -0.0058255154 -0.00568688
0001e0 c0 a8 06 3c 28 e7 25 3c 92 17 dd bb 91 8c 98 3a
       0.008218944 0.010125913 -0.0067471946 0.0011638572
0001f0 ee fa cb bb 2b 7c c7 3b df 4b 7c 3b 38 8e d8 bb
       -0.0062249815 0.0060878 0.003849737 -0.0066087507

network_body._body_endoder.seq_layers.0.bias f4 [128]
000000 82 dd 28 3d 0b 42 90 3b cf cb 1f 3d 65 06 09 bd
       0.04122687 0.004402404 0.039012726 -0.033453364
000010 46 ec dc 3c 01 47 08 3e 7c 2e f3 3c 1b f1 42 3d
       0.026968133 0.13308336 0.029685251 0.047593217
000020 cc 05 c8 bd 87 b2 e5 3c 17 79 2a bc 6e 52 47 bd
       -0.09766731 0.02803923 -0.010404847 -0.048662595
000030 19 99 3d 3d 2d 21 70 3c ed 7b 60 3d a2 ed fd 3d
       0.046288583 0.014656347 0.054805685 0.123988405
000040 5c a9 7c 3d 7d 55 ed 3d b8 75 1e 3c 21 5f af 3d
       0.06168495 0.11588571 0.009671621 0.08563066
000050 d5 53 c8 3c 2a a0 8b bd 27 87 79 3d 29 ff 0f ba
       0.024454037 -0.06817658 0.060919907 -0.0005493039
000060 d8 81 9f bd 54 21 33 3d 2d 59 a2 3d 95 95 ab bc
       -0.077884376 0.043732956 0.07927165 -0.02094535
000070 11 a3 04 3d 9b a7 a3 3c fd cc 03 3e 8e 18 51 3d
       0.032382075 0.019977381 0.12871166 0.051048808
000080 fa 6d 0b 3d 2e 3d f5 bc b5 e7 e5 3d 56 fc 97 3d
       0.03404043 -0.0299364 0.11225835 0.07421176
000090 e4 e0 73 bc 71 16 21 3d 0a de 78 3d c1 20 c9 ba
       -0.014885161 0.039328042 0.060758628 -0.0015344844
0000a0 b4 fc 8f 3d 51 53 1b 3d 06 99 87 3d 63 6f 58 bd
       0.07030621 0.037921254 0.06620984 -0.0528406
0000b0 32 78 2e 3d f6 bd 8d 3d b1 64 88 bc 45 b7 0a bd
       0.042595096 0.06920998 -0.016649576 -0.033866186
0000c0 a5 c1 02 3d a1 c7 9d 3b d2 85 c6 ba ab d8 8e 3c
       0.031922955 0.0048150574 -0.0015146083 0.0174373
0000d0 c5 2b b9 bb e5 cf b6 3c 45 93 65 3d ed 6c 1a 3d
       -0.0056509697 0.022315929 0.05604865 0.037701536
0000e0 a4 f9 8b 3c a9 93 5f 3d 04 0a 7e 3c 44 30 e7 bc
       0.017086811 0.05458418 0.015505318 -0.028221257
0000f0 25 bc 64 3d be dc 90 3d 7c 02 65 bd 5e 9e 3c 3d
       0.05584349 0.07073353 -0.055910572 0.04604947
000100 99 4b 62 bb 44 07 12 3d 01 f5 42 3c 20 3c 83 3c
       -0.0034529923 0.03565146 0.011899234 0.01601988
000110 93 6a 59 3d eb dd 37 3d 59 32 7b 3d 07 b4 c8 3d
       0.053080153 0.04488937 0.061327312 0.097999625
000120 53 19 a3 3d 54 7b 75 bc ba d7 b0 3d fb df 61 3d
       0.079638146 -0.014983017 0.086348966 0.055145245
000130 8b 9b 7c bc e6 f3 36 3d bc c7 34 bd 82 91 81 bd
       -0.015417944 0.044666193 -0.044135794 -0.063265815
000140 0f 92 00 3c 2a e2 9f 3c 99 b8 92 bb 63 85 5c 3c
       0.007847323 0.019517023 -0.004477572 0.013459536
000150 0a e2 2e 3d f2 77 18 3d ad c4 01 3d 9e 60 ce bb
       0.042696036 0.037223764 0.031681705 -0.0062981388
000160 5a 9a 3d bc de e9 54 bd b5 3f b1 3d 8f 8f 00 3d
       -0.011572445 -0.051980846 0.08654729 0.03138691
000170 38 59 1f 3d b6 bf 34 3d bc d7 1b 3c e4 45 41 3d
       0.038903445 0.044128142 0.009511884 0.047185794
000180 ed b3 06 3d 8f fb dd 3d 53 72 62 3d 9b 67 4c 3d
       0.032886434 0.108389966 0.05528481 0.049903493
000190 0a 84 e8 bd db d1 09 3d e6 e6 06 bd d9 18 5b 3d
       -0.113533095 0.0336474 -0.032935046 0.053490493
0001a0 93 16 99 3b c6 32 b0 3d 7b 79 af 3d f1 45 2a bd
       0.0046718805 0.08603434 0.085680924 -0.041570608
0001b0 d4 39 36 3d cc d5 9f ba 00 75 0d bc b2 a3 60 bd
       0.044488743 -0.0012194454 -0.008633852 -0.054843612
0001c0 22 d2 f7 3c 34 a1 d0 bc a4 25 19 3d de 89 b2 bd
       0.030251566 -0.025467493 0.037389413 -0.08717702
0001d0 d9 72 98 3d 82 ff bd 3d f5 57 e9 bc cd 4f 82 3c
       0.074437805 0.0927725 -0.028484324 0.015907193
0001e0 2d c3 92 3d 72 4e 92 3c 16 ef 25 3d 6d 1a 38 3d
       0.07166133 0.017859671 0.040511213 0.044947077
0001f0 5f cf 49 3c 1d 8f 3b 3d f3 b5 d9 bc 07 28 57 3b
       0.0123175075 0.04579078 -0.026576018 0.0032830255

network_body._body_endoder.seq_layers.0.weight f4 [128, 6]
000000 ad 7c 1e bf c3 d9 ae 3d b2 4a ae be d8 36 d2 3d
       -0.6190899 0.085376285 -0.34041363 0.10264367
000010 ca af 88 be 99 64 a4 be 2f eb 53 3e 64 2b 5b be
       -0.26696616 -0.32108 0.20695184 -0.21403271
000020 fc fd a0 be 00 86 db 3e 11 45 15 3f f8 54 cf 3c
       -0.31443775 0.4287567 0.5830851 0.025309071
000030 98 ce f1 be 38 55 80 be e7 5f bb bd 53 73 e1 bc
       -0.4722793 -0.25065017 -0.09149151 -0.027520811
000040 5f dc 37 3f 76 46 ba bd ad 2e 43 be ff d7 c6 bd
       0.71820635 -0.090954706 -0.19060774 -0.09709167
000050 f4 8e 26 3e 21 40 e3 be 5f 3f d1 3e 53 cd 9a 3e
       0.1626547 -0.44384864 0.4086866 0.30234775
000060 c6 3f 32 bf 00 f1 be be 5d 37 f8 3e 31 d6 38 bf
       -0.6962856 -0.37293243 0.4847974 -0.7220183
000070 76 8c c8 3d 74 d9 a3 3e a3 3f 4e be 8f c1 83 3e
       0.09792416 0.3200184 -0.20141463 0.2573361
000080 c7 41 8a bc e0 66 d8 bc 35 17 ef 3e 91 80 95 bd
       -0.016877068 -0.026416242 0.46697393 -0.07299913
000090 42 7c 4e 3f 3a a5 3f be 43 c5 0c 3f 33 f2 97 bc
       0.8065835 -0.18715373 0.549885 -0.018548107
0000a0 63 d5 42 3f a9 fe d4 3e 32 62 1c 3e 00 e2 84 be
       0.7610685 0.4160054 0.15271834 -0.25953674
0000b0 0e e8 8b 3e 7d 82 bd 3e db c0 73 3e 61 91 93 bf
       0.2732548 0.37013617 0.23804037 -1.1528741
0000c0 7e d5 9d be de 2c 07 bf 34 6c 33 bf db d8 fe be
       -0.30826944 -0.52802837 -0.7008698 -0.49774823
0000d0 68 13 d0 3e 7e 16 ba bc 51 99 d5 be c2 fd e0 3d
       0.40639806 -0.022715803 -0.41718534 0.109859005
0000e0 e9 93 1c bf 60 05 26 3e c3 69 08 3f a8 85 27 3f
       -0.61163193 0.16212988 0.5328638 0.6543832
0000f0 7c 15 87 3d e9 79 95 3e 47 9c 9d 3d de fb ca be
       0.06595895 0.29194573 0.07695823 -0.39645284
000100 d8 44 74 bf b4 53 47 be 8e c3 a4 3e 47 0e 92 be
       -0.9541755 -0.19465524 0.32180446 -0.28526518
000110 4c 41 a6 3e 6f 8c c8 3e 4e c8 ed 3e 6c e8 11 be
       0.32471693 0.39169642 0.46441883 -0.14248818
000120 0a e9 2f 3e 98 3c 57 3e fa f4 73 be ee 84 86 bf
       0.17178741 0.21019208 -0.2382392 -1.0509317
000130 b8 60 5a 3c bf ad 27 be 72 9b 06 3e 00 38 12 be
       0.013328724 -0.16374873 0.13145235 -0.14279175
000140 a3 8b e7 bd 3a 57 38 bf 2b 85 aa 3d 02 2d 86 3e
       -0.113059305 -0.720081 0.08326181 0.26206213
000150 7d 5c a3 3d ce 2d ee 3e 45 e1 cb 3e 20 72 63 3d
       0.07976625 0.4651932 0.39820305 0.05552876
000160 06 6b ec be 3e ff a4 be 97 85 57 bf f9 2b 1c 3f
       -0.46175402 -0.32225984 -0.84188217 0.61004597
000170 aa a9 06 bc b2 2c 35 3f cc af 3e be 3e 02 78 3c
       -0.008219162 0.70771325 -0.18621749 0.015137253
000180 97 12 55 3e 63 97 2a 3c 3e bd 2a 3d 04 c5 d3 3e
       0.20807873 0.01041207 0.04168438 0.41361248
000190 f2 71 44 be 11 4a 25 bf 20 38 28 3e 41 e2 24 3f
       -0.19184092 -0.6456614 0.1642766 0.64407736
0001a0 a1 25 6d 3e ca a1 e6 be f8 dc 73 3f 7d 3e 43 3e
       0.23158886 -0.4504531 0.95259047 0.19066806
0001b0 f7 61 38 be ff ba 22 bf 6d 61 38 bf 87 2f 18 bd
       -0.1800612 -0.63566583 -0.7202366 -0.0371547
0001c0 84 a7 22 bf c9 d8 f1 be a3 ea ac be 84 dd 52 3e
       -0.6353686 -0.47235706 -0.33772764 0.20592314
0001d0 c2 03 68 3e 6d ca 1e 3f eb f5 ec bb 62 d0 bb bc
       0.22657683 0.6202763 -0.007231464 -0.022926513
0001e0 fa 94 07 bf 1f 26 88 3e c0 5a b0 3e 19 f2 fb bd
       -0.52961695 0.26591584 0.34444237 -0.12302036
0001f0 37 fa af 3e 71 65 40 3e c4 09 37 3e db 68 ca be
       0.34370586 0.18788697 0.17874819 -0.39533123
000200 2b 91 4a 3e 8e a0 85 3e 1a 5f b0 be 45 e0 90 3e
       0.1978194 0.26099056 -0.34447557 0.28296104
000210 f7 32 42 3e 8c 78 d9 bb d9 f9 15 bd 92 e5 b3 be
       0.18964754 -0.0066366848 -0.036615226 -0.35136086
000220 36 e6 be 3d c1 39 7e be cd 0e e2 3e 2b f1 77 3e
       0.09321253 -0.24826719 0.44151917 0.24213092
000230 0f bc e2 bc 55 d8 e0 3e 97 e4 d7 3c 8f e3 3d be
       -0.027677564 0.43915048 0.026354117 -0.18543838
000240 ad 31 43 be ad d5 80 bd 01 b2 c3 3e b1 dc 5b 3e
       -0.19061919 -0.062907554 0.38221744 0.21470906
000250 cd e3 1d bf 54 55 18 3d 67 6f 10 be fd b5 6c be
       -0.6167572 0.03719075 -0.14104997 -0.23116298
000260 3a 12 3c 3f 89 2e 13 3f 6e 6d 2f 3e 7e 03 5a 3e
       0.7346531 0.5749288 0.17131588 0.21290395
000270 ae 28 18 3f 30 42 b3 3c 57 6c 83 3e 5f 22 00 bf
       0.5943707 0.021882147 0.25668594 -0.50052446
000280 03 66 98 3d 11 75 0f 3b ca 06 2b bf 2d e6 b0 3e
       0.07441332 0.0021889845 -0.66807234 0.3455061
000290 a9 ee 9c 3e de 06 fa 3b b7 ef 35 3e ab f3 20 be
       0.30650833 0.007630213 0.17767225 -0.15717952
0002a0 1f 35 1b be 9a 6a 24 bf 05 ea 33 3e 36 03 2f bf
       -0.15156983 -0.6422516 0.1756974 -0.68364275
0002b0 af 12 ea be b8 93 44 bf 14 47 8d 3e 57 0f fb 3c
       -0.4571738 -0.767879 0.2759329 0.030646963
0002c0 a6 0a 65 3e e1 5a 06 3e 75 14 ad 3d e4 b2 41 3f
       0.22367343 0.13120605 0.084511675 0.7566359
0002d0 b1 6c 54 3f 26 84 45 3f a3 f2 50 3e 51 b7 5f bf
       0.8297835 0.7715477 0.20405059 -0.87389094
0002e0 28 6b f5 3a 92 3f 92 be 9d 97 e9 3d 3c 03 7d 3d
       0.0018723952 -0.28564125 0.11405871 0.061770663
0002f0 8b 04 28 3f c1 c2 b5 be 7d 58 57 bf 55 02 8f be
       0.6563193 -0.35500148 -0.841194 -0.27931467
000300 88 4d 73 3d d4 4f bf be 85 18 28 bf 42 d4 cb 3e
       0.05940011 -0.37365592 -0.65662414 0.39810377
000310 f3 db 65 bd 7e 5f f9 be 4a a0 22 bf 21 a0 b0 be
       -0.056117963 -0.48705667 -0.6352583 -0.3449717
000320 6d d1 11 3e 60 79 1e bf c2 4f 45 bd be 63 49 3f
       0.14240046 -0.61903954 -0.048171766 0.7866782
000330 1f 09 c7 3e 32 bd a3 bd d4 93 50 3f 28 89 04 bf
       0.38874146 -0.079950705 0.8147557 -0.51771784
000340 36 db 2f 3f f7 c8 05 bf fa 33 40 be 05 c5 26 3e
       0.68693864 -0.52259773 -0.18769827 0.16286094
000350 9c bf a3 3e 0a 1b 70 3c 52 65 5c 3d 76 a4 23 bf
       0.31982124 0.014654884 0.053807564 -0.6392282
000360 14 a0 97 3d 59 66 cf be b9 0b d5 3e df 2f bc 3e
       0.07403579 -0.40507773 0.41610506 0.36755273
000370 fe 31 99 be 35 a7 09 bf 79 e1 27 3e 2b 10 22 bf
       -0.29920954 -0.5377076 0.16394605 -0.6330592
000380 29 c5 97 be 98 5d fb 3e a8 d6 76 3e a9 03 bf be
       -0.2964261 0.49094844 0.24105322 -0.3730748
000390 e0 1c 0f be c9 51 e0 3e 1b 9f 6b 3e 4a dd 34 3d
       -0.13975859 0.43812397 0.23009913 0.04415635
0003a0 53 6b 61 be 13 67 d2 3e bc 98 3f 3e da ae c8 bd
       -0.22013597 0.41094264 0.18710607 -0.09798975
0003b0 04 50 6f 3f 78 a3 d7 3e 39 6d 55 bf 0f 82 bb bc
       0.9348147 0.42116904 -0.83369786 -0.022889165
0003c0 e5 f8 9a be 1c 88 77 3e b2 b7 64 3e 53 07 08 3f
       -0.30268016 0.24173015 0.22335699 0.53136176
0003d0 31 04 ca 3e 71 bd bf be 0d 9d 16 bf e3 2e 40 3e
       0.39456323 -0.3744922 -0.5883339 0.18767886
0003e0 90 33 a0 be 53 bc d2 3e c7 38 8c 3d 42 40 34 3e
       -0.3128934 0.41159305 0.06846767 0.17602637
0003f0 2b c3 16 be b0 a7 fd be 70 f2 af 3d 1e 99 81 be
       -0.14722888 -0.49541998 0.08591163 -0.25312132

network_body._body_endoder.seq_layers.2.bias f4 [128]
000000 c9 95 32 3d ee f0 c0 3c 30 bc 07 3d 2d 37 26 3d
       0.043599878 0.023552384 0.033138454 0.040579963
000010 1a a3 68 3d 6d 20 1d 3c b9 e6 3e 3d 1d 93 95 bc
       0.05679617 0.00959025 0.046606753 -0.018258626
000020 4a 74 b5 3d 3a 09 5c 3d af 5f eb bc 16 37 a9 3d
       0.08860071 0.053719737 -0.028732149 0.0826246
000030 3c 68 3c bd 49 cf ed 3c b9 64 f4 3c 06 14 db 3c
       -0.045997843 0.029029505 0.029833185 0.026742946
000040 ed bd 54 3d a9 f1 1f 3d 92 f4 7f 3d 32 cb f6 3c
       0.05193894 0.039048824 0.0624891 0.030126188
000050 d5 b6 93 3d 8c 9e ff 3c 31 05 36 bc 49 63 f6 3c
       0.07212607 0.03120353 -0.011109636 0.03007664
000060 e2 e2 c1 3c 05 e0 18 3d ae 85 84 3c b1 d9 b0 3d
       0.023667756 0.037323017 0.016177025 0.08635271
000070 19 17 33 bb da 8d f2 3c b9 3d 76 3d ec 62 e1 3c
       -0.0027327 0.029608656 0.060117457 0.02751299
000080 be 90 77 3d ab 4f 69 3c 3e bb 4a 3d 80 2a aa 3c
       0.06044077 0.014240186 0.049494974 0.020772219
000090 ca 11 fa 3c 80 3a 3a 3d d0 06 00 3e d0 a7 df 3d
       0.03052606 0.045465946 0.12502599 0.109206796
0000a0 a3 4c 8d 3d 42 57 4d 3d 5e 08 7f 3d 87 e2 bf 3c
       0.06899383 0.050132044 0.06226384 0.023423446
0000b0 7d 54 21 3c 9c 47 9d bc 2f e5 e0 3c 27 cb 0c 3d
       0.009846804 -0.019199185 0.027453033 0.03437343
0000c0 df 2d 74 bc af b9 db 3c 2d 8a a2 3d 13 3d 63 3d
       -0.014903515 0.02682194 0.07936511 0.055478167
0000d0 1a b7 0d 3c a3 cc 76 bb 12 b4 a9 3d 7f a7 81 3c
       0.008649612 -0.0037658594 0.08286299 0.015826939
0000e0 b6 74 e9 3c 61 95 e7 3c 80 71 87 bb e0 d8 65 3d
       0.028498035 0.028269472 -0.0041334033 0.05611503
0000f0 be 39 56 3d 0a 11 ba 3d c9 a4 c5 3d 03 78 62 3d
       0.05230116 0.09085281 0.09650571 0.055290233
000100 56 db 79 3d e5 7d 70 3d 9e 67 ce ba cc cc a8 3d
       0.06100019 0.058713812 -0.0015747433 0.08242187
000110 ed 34 ec 3c 99 d9 64 3c 68 19 5c 3d f7 89 d7 3c
       0.02883383 0.013967895 0.053735167 0.026310904
000120 54 e8 da 3d dd d6 40 3d 5a a0 71 3d 51 47 4c 3d
       0.10688844 0.04707991 0.058990814 0.0498727
000130 f2 e8 08 3d 09 46 8b 3d 8a 7d 71 3d 50 67 77 3d
       0.03342528 0.068004675 0.058957614 0.06040126
000140 96 00 42 3c 4b 2c 4d 3d e3 70 79 3d 45 a5 94 3d
       0.01184096 0.05009107 0.060898673 0.07258085
000150 9d d5 15 3d 83 f3 1a 3c f2 1e de bb 8e be 46 3b
       0.03658067 0.009457472 -0.0067785913 0.0030325982
000160 39 fc 60 3d d8 8e 40 3d 6c fc 2f 3d 2b a5 13 3d
       0.05492804 0.047011226 0.042965338 0.03604619
000170 55 b6 5d 3d ce f1 db 3d e3 63 bb 3d 10 51 81 3a
       0.054128964 0.1073948 0.09149911 0.0009866077
000180 29 a0 78 3d 72 58 94 3d 04 22 85 3d 3d 62 a5 3d
       0.060699616 0.07243432 0.065006286 0.08075378
000190 80 b3 57 3d 69 4f 3f ba 9d 55 7c 3d 78 b9 83 3d
       0.05266142 -0.0007297905 0.061605085 0.0643186
0001a0 36 80 07 3d cc cf 15 bd 4d f4 e5 3d de 3b 63 bc
       0.033081256 -0.036575124 0.11228237 -0.013869254
0001b0 ce 23 a4 3c 0e a0 cd 3d 63 9e fe bc 1a 46 6e 3d
       0.020036604 0.10040294 -0.031081384 0.058172323
0001c0 de 01 34 3d 74 5f a3 3d ac f8 30 3d 83 77 94 3c
       0.043947093 0.079771906 0.043205902 0.018123394
0001d0 39 47 c6 3b 41 65 0d 3d 1e 87 bb 3d f8 8a a6 3d
       0.006050971 0.03452039 0.09156631 0.08131975
0001e0 82 b0 06 3d 9d 0b de 3c 07 5f 1d 3d 15 64 64 3d
       0.032883175 0.027105147 0.038420703 0.05575951
0001f0 4a 20 16 3d 77 1a 75 bc eb 7e cb 3c 3a 92 a9 3d
       0.036651887 -0.014959923 0.024840793 0.08279844

network_body._body_endoder.seq_layers.2.weight f4 [128, 128]
000000 fc 42 16 bd 32 4f 16 3e f5 18 23 be c2 6a d6 bd
       -0.036684975 0.14678648 -0.15927489 -0.10469581
000010 92 cc 65 3a 95 0c c3 bc f6 ae 22 3d 10 9a a0 3d
       0.000876614 -0.02380971 0.039717637 0.07841885
000020 1e f1 6a 3e f5 af 67 bb 18 a0 3f 3d 09 17 3d 3e
       0.22943541 -0.0035352681 0.046783537 0.18465818
000030 2a a5 f3 bd 46 87 1f be 3f 92 97 3d 5d 77 52 3d
       -0.11896737 -0.15578946 0.07400941 0.051383365
000040 2f 87 0c 3c c3 bc a8 bd 76 ab 10 3e ab fb 06 bd
       0.008577152 -0.082391284 0.14127907 -0.032954853
000050 7e d2 d0 bc 91 86 57 3e 99 01 fb 3d 68 40 71 3d
       -0.025490995 0.21047427 0.12256164 0.058899313
000060 fa 94 0e be a0 b5 e5 bc 41 fe 97 3d 82 74 40 bc
       -0.13924018 -0.028040707 0.07421542 -0.011746528
000070 3a 21 be bd f5 f8 1a bd fd e8 29 be 45 2a aa bd
       -0.09283681 -0.03783508 -0.16592784 -0.083088435
000080 90 ce d9 bc ae 0b 08 bc 74 f4 3f 3d 57 e4 90 3d
       -0.026587754 -0.008303566 0.046863988 0.07074802
000090 e5 6f d3 3a 65 8a 09 be 36 7c 78 bd ad e6 bd bc
       0.001613137 -0.134317 -0.06066533 -0.023181284
0000a0 6d ed 05 bd 4e 37 bb 3d 7e f7 27 3d 4a 97 fc 3d
       -0.03269713 0.09141408 0.04100751 0.123335436
0000b0 f7 2c 73 bc ee cd a2 3d 43 62 7c 3d 47 87 74 3e
       -0.014842263 0.07949434 0.061617147 0.23879729
0000c0 a1 38 1b 3d 09 e2 55 bd 18 39 20 be 7d 27 e3 3d
       0.037895802 -0.052217517 -0.1564678 0.11091516
0000d0 bc 2f 26 3d 52 95 2a bc a7 e8 fb bd f2 cf 94 bd
       0.040572867 -0.010411577 -0.12300234 -0.07266225
0000e0 99 01 b0 3c 3f 38 ca bd 6b 85 15 be a7 c7 4e be
       0.021485137 -0.09874009 -0.14601676 -0.20193349
0000f0 60 34 27 be 6d de b9 bc 36 63 07 be 71 23 c9 3d
       -0.16328573 -0.022689069 -0.1322144 0.09821213
000100 81 6e 94 3d 0b a0 d6 bd 01 53 34 3c 2b 19 a4 3d
       0.072476394 -0.104797445 0.011006118 0.08012613
000110 a3 23 73 bd 37 3d b6 bd 5b 06 b3 bd bd 10 71 3d
       -0.059360158 -0.088983946 -0.087414466 0.058853853
000120 86 18 31 3e 23 27 01 be 80 c6 3e 3d 0b 28 21 bd
       0.17294511 -0.12612586 0.046576023 -0.03934483
000130 4b e6 c5 3b 85 2d 8c bd a2 5b 01 bd 17 63 8f bd
       0.006039416 -0.0684462 -0.03158153 -0.07001322
000140 65 36 54 bd fa 28 b9 bd f5 eb 3b bd 4d f9 17 3e
       -0.051809687 -0.09041019 -0.045879323 0.14841194
000150 f9 27 ee bc 34 04 15 3d 7a de c8 3d a0 6f a8 3d
       -0.029071795 0.03638096 0.09808059 0.08224416
000160 b9 b8 33 be 1f fc a9 3d ff ed 46 be 13 53 ce bd
       -0.17550935 0.083000414 -0.19426726 -0.10074439
000170 d2 d7 34 3c 15 65 34 3d c0 a4 98 bb 40 25 32 bc
       0.011037784 0.04404171 -0.0046583116 -0.010873139
000180 c6 71 f4 3c ff ef 52 bd 31 f7 9d bd c5 0a b2 3d
       0.029839408 -0.05149841 -0.07713164 0.086934604
000190 67 8c 5c bc 65 64 bf 3c ce c3 ea 3c e2 01 22 bd
       -0.013461209 0.023363302 0.02865782 -0.039552577
0001a0 aa 7d a6 bd b3 1d b7 39 c2 25 16 3e ff fe 21 3d
       -0.08129437 0.00034926608 0.14662841 0.039549824
0001b0 bc 50 31 bd ab e7 0e bd 1d 8e f2 bd 24 ac f2 bc
       -0.043289885 -0.034888905 -0.11843512 -0.029623099
0001c0 97 4c e6 bd 44 d0 0c bd b1 9c 64 3c 04 fe c2 3d
       -0.11245077 -0.034378305 0.013953374 0.09521106
0001d0 d5 5a ee 3b a2 03 b3 3d 0e 4b 87 bd b9 e0 ae 3d
       0.0072740116 0.08740927 -0.066061124 0.08538956
0001e0 4d 4d fb 3d a8 5e 0d be c4 c3 77 3b 84 37 04 3e
       0.12270603 -0.1380564 0.0037805894 0.12911803
0001f0 62 54 83 3d a4 67 94 3c 24 7b 24 bd 34 10 d7 3d
       0.06412579 0.018115826 -0.0401565 0.105011374
000200 e5 c7 67 3d 9f 1e b4 bd 02 50 e0 3c 2e be df 3d
       0.05658712 -0.08794903 0.0273819 0.10924946
000210 8b d2 01 bd bc 9e 53 3e 7b 32 c8 bd 19 c3 80 bd
       -0.03169493 0.20666021 -0.097752534 -0.06287212
000220 a8 27 92 bd c1 1d 1b 3d 0e bd 08 3d 3b 2e d3 bc
       -0.0713647 0.037870172 0.03338342 -0.02577888
000230 bf 45 70 3d f9 a6 8e bd ac 36 a9 bd 9c a1 4d 3e
       0.058660265 -0.06965441 -0.08262381 0.2008118
000240 39 19 2a bd 9d be 40 bd fe e7 99 3b 88 e7 9a 3c
       -0.04152796 -0.047056783 0.004696845 0.01890923
000250 e7 a1 29 bd 29 6d f1 3d 26 0e e5 bd 6a 38 c8 bd
       -0.041414168 0.11788399 -0.11184339 -0.09776385
000260 75 43 a9 bd 81 ad cd 3d 65 3d 26 be 94 ae f1 3d
       -0.082648195 0.10042859 -0.16234358 0.11800876
000270 33 a4 fa 3c 7c b4 60 3e 2e 43 40 bd 62 b0 f1 bd
       0.030595874 0.2194385 -0.046939068 -0.118012205
000280 a8 5e 40 3c 88 48 bd 3d b1 66 bf bc cd 0c 21 be
       0.011741318 0.0924235 -0.023364397 -0.1572754
000290 2b e4 41 be 67 61 67 3e a0 b0 23 bd d9 42 01 be
       -0.18934695 0.2259575 -0.039963365 -0.12623157
0002a0 08 7f 87 3d 45 a4 9a 3d b4 4a 25 3d 94 a6 bc bd
       0.06616026 0.07550863 0.040354446 -0.0921146
0002b0 dd b4 be bc c2 70 52 ba 8c 2e 84 3d f1 3d fc 3c
       -0.023279602 -0.00080276665 0.064541906 0.030791255
0002c0 57 25 05 be 50 3b 58 bd 25 0a 1f 3e da f2 b8 3d
       -0.13002525 -0.05279094 0.15531214 0.09030695
0002d0 fb 0c 87 bc 86 ae 06 be 72 81 85 3d cb 6c 8f bd
       -0.016485682 -0.13152513 0.0651883 -0.070031725
0002e0 c4 1d 92 3d 2b 97 39 bd c1 57 a1 bd 7c 38 94 bd
       0.071345836 -0.04531018 -0.07878066 -0.07237336
0002f0 c1 8a 87 3b e6 c5 ce 3d de 70 92 3c e9 e2 83 bc
       0.004136414 0.1009634 0.017876085 -0.01609941
000300 46 61 38 be d0 48 62 3d 76 5b 1d be 01 9b 9e bd
       -0.18005857 0.05524522 -0.15366921 -0.077444084
000310 de dc 88 bd a1 fe 34 3d 0f af 0f 3e 16 bb 25 be
       -0.06682752 0.044188146 0.14031623 -0.16184649
000320 75 41 04 3d 5a a0 2e 3e 20 ac db 3c 32 dd 05 be
       0.032288987 0.17053357 0.026815474 -0.1307266
000330 27 f1 3b 3e 65 a0 71 bd a4 51 a0 3d fe aa 8a 3d
       0.18353711 -0.058990855 0.07828072 0.067708954
000340 ce b8 35 3d ad f0 3d be 6c af cd b9 f1 96 ab bd
       0.044365697 -0.18548842 -0.00039231346 -0.08378399
000350 b2 b3 28 bd dd cc 45 be 76 6e e1 3b 80 30 a1 bb
       -0.041186996 -0.1931643 0.006879623 -0.0049191117
000360 f5 83 ee 3d 5b d6 4e be 3e f3 7b 3d e6 b8 f9 bd
       0.116462626 -0.20198958 0.06151127 -0.1219347
000370 6a 48 35 3d f3 b8 2e 3e 6a 6c 4d 3d e4 db ad 3c
       0.044258513 0.1706274 0.05015222 0.021223016
000380 16 3f 41 3e a4 66 14 be b1 ef 9b 3d fa 62 54 bd
       0.18871722 -0.1449228 0.07614077 -0.051852204
000390 5e 35 f2 3d 7b 6a 1c 3d 8f 16 06 bd 54 70 86 bd
       0.11826585 0.038187485 -0.032736357 -0.06564394
0003a0 fa 23 ea 3d 4a 73 2d 3d de 74 7a bd a7 b6 0b 3e
       0.11432643 0.042346276 -0.06114661 0.13643895
0003b0 18 d7 18 be ae 44 37 bd 81 91 15 be 6d 30 13 3e
       -0.14925802 -0.044743232 -0.14606287 0.14373942
0003c0 30 02 ea 3d fa f0 b2 3d 3a 3d 9e 3c 64 6b 1c 3d
       0.114261985 0.08737369 0.019316304 0.038188353
0003d0 9c 19 f1 3d f2 2b 1c be 36 c2 46 3d c6 49 03 bc
       0.11772463 -0.15251139 0.048525058 -0.008013194
0003e0 00 a4 17 bd 67 fc a0 3d 9e af a8 3d 1f 34 0a 3d
       -0.037021637 0.07860642 0.08236621 0.033741113
0003f0 2f da 21 3d f9 5f 9d bd 48 f9 0c be 73 1d b7 3d
       0.039514717 -0.07684321 -0.13766968 0.08941164
